CNN_Model_Development_in_PyTorch/models/03_pytorch_computer_vision_model_2.pth (torch, 35506 bytes, 10 tensors)

block_1.0.weight f4 [10, 1, 3, 3]
0.3594833 0.17210832 -0.4883893 0.18908462 0.28640142 -0.12484428 -0.47303358 0.02736101
0.37489387 -0.32817933 0.34299445 -0.13665868 0.33488727 0.46566334 0.08098268 -0.14401852
0.24363042 -0.00073396595 -0.47215164 -0.15335555 0.10782079 -0.8606405 -0.8265338 0.14714299
-0.87152475 -0.7603935 -0.071845524 -0.9893079 -1.4279339 -0.6663711 0.18533877 -0.9857645
0.20697726 0.47828436 -0.01489075 0.3461519 0.008996517 0.39499223 -0.17082278 -0.34521592
0.514208 -0.30505294 -0.11492577 0.36058053 0.17002888 -0.13163155 0.20466542 0.06383829
0.18778309 -0.20186593 -0.33469367 -0.12428924 -0.24844907 0.28027073 0.17424326 -0.08100659
0.12736927 -0.013949246 -0.15875383 -0.121203505 -0.19840163 -0.97019666 -0.059304714 -0.08600299
0.13088143 -0.22133397 0.35786423 -0.46225783 -0.62660146 -0.24389356 0.6072023 0.3111296
0.48083082 -0.30389723 -0.33506963 -0.34976134 -0.4087738 0.06919944 0.14962663 0.42521966
-0.07573774 -0.22558783 0.17861761 -0.1314549 0.20776905 -0.07767193 0.19231658 -0.2589985
-0.16800132 0.10463863
00000000: 320e b83e 2a3d 303e 2a0e fabe 669f 413e
00000010: 35a3 923e 5cae ffbd 7531 f2be 3224 e03c
00000020: 17f2 bf3e 1f07 a8be f89c af3e 41f0 0bbe
00000030: 5876 ab3e 6d6b ee3e 3fda a53d 9779 13be
00000040: 417a 793e 9f67 40ba dcbd f1be 3d09 1dbe
00000050: 25d1 dc3d f052 5cbf b897 53bf a7ac 163e
00000060: 3f1c 5fbf 26a9 42bf bf23 93bd 4843 7dbf
00000070: 8ac6 b6bf 4c97 2abf 72c9 3d3e 105b 7cbf
00000080: d9f1 533e b0e1 f43e 55f8 73bc d23a b13e
00000090: 2166 133c 6c3c ca3e 2bec 2ebe 24c0 b0be
000000a0: 23a3 033f e62f 9cbe 345e ebbd 039e b83e
000000b0: 0d1c 2e3e 6cca 06be d093 513e a6bd 823d
000000c0: 364a 403e f1b5 4ebe f85c abbe 5b8b febd
000000d0: 6f69 7ebe a57f 8f3e d36c 323e c8e6 a5bd
000000e0: 176d 023e 618b 64bc 5d90 22be 8b39 f8bd
000000f0: cc29 4bbe cf5e 78bf 80e9 72bd 5622 b0bd
00000100: c805 063e 5fa5 62be fb39 b73e 0fad ecbe
00000110: f468 20bf 3cbf 79be 9c71 1b3f 614c 9f3e
00000120: 752f f63e 6b98 9bbe 3f8e abbe eb13 b3be
00000130: cd4a d1be 70b8 8d3d b937 193e 64b6 d93e
00000140: 631c 9bbd 7f00 67be 89e7 363e 1d9c 06be
00000150: 69c1 543e 7612 9fbd a3ee 443e 749b 84be
00000160: 8a08 2cbe c74c d63d

block_1.0.bias f4 [10]
0.08936346 0.06279596 0.19341125 0.22836752 0.09320756 -0.15691651 0.21507171 -0.07362155
-0.03517655 -0.31942233
00000000: 3104 b73d 2b9b 803d 990d 463e 2dd9 693e
00000010: 9be3 be3d b9ae 20be c23b 5c3e e5c6 96bd
00000020: 4915 10bd 538b a3be

block_1.2.weight f4 [10, 10, 3, 3]
0.046713196 0.027973605 -0.06393753 -0.11661633 -0.18973055 -0.12947 -0.10994734 -0.16577971
-0.1582283 -0.046069257 -0.076934546 -0.11227984 -0.105254434 -0.28137043 -0.1427041 -0.038713366
-0.20894453 -0.12124013 -0.025425417 0.03150712 0.11682223 0.16584688 0.48181397 0.37332553
-0.34100288 -0.17018278 0.076481566 -0.17139946 -0.07755885 -0.30230668 0.020099092 0.05070306
-0.110580795 0.35069558 0.2093804 0.009829019 -0.15429929 -0.177117 -0.06812888 -0.13087462
-0.07412221 -0.1717982 0.20498385 -0.09952175 -0.10420671 0.023628106 0.05588495 0.08558615
0.09593996 -0.08666523 0.034814853 -0.045105785 -0.013243727 -0.07428118 0.08332634 -0.05129512
-0.08625724 0.14338008 0.15807693 -0.037868645 -0.15402739 -0.08738586 -0.103257656 -0.07186953
0.042819932 -0.007208954 -0.049778458 0.047714226 -0.009150198 -0.04397156 -0.09072037 -0.06463423
0.05617212 0.008588226 -0.04241306 -0.04703095 -0.09423163 0.034044802 0.11935279 -0.095300876
-0.016028622 0.054442324 0.019083949 -0.03747306 0.055016473 0.055393953 0.03941879 -0.018522663
-0.027912505 0.011270971 0.0028896078 -0.07908183 0.06378293 0.21040693 -0.04019663 -0.10946851
0.11575728 0.07792661 -0.01003447 0.029749861 -0.13342345 -0.046168968 0.13686126 0.04591428
-0.052537013 -0.010435448 -0.0073355557 -0.0673548 -0.039252274 0.031571027 0.06682763 0.033248678
-0.11182398 -0.09352643 -0.020351658 0.10360037 -0.009596736 -0.028387394 0.051595576 -0.05657409
-0.09973807 0.18225804 -0.006034247 -0.049321525 -0.087372035 0.17702739 0.08734098 0.011731587
-0.09664828 -0.063255325 -0.1040012 0.037771974 0.1007514 0.09420935 0.035744105 0.026978182
-0.0007221588 -0.080035 -0.08998972 -0.09835538 0.04399362 -0.050646134 -0.021166824 -0.060253628
-0.021002622 -0.079705484 -0.060327467 0.040976223 -0.07198988 0.078877375 -0.02485358 -0.09399821
-0.025663663 -0.021081528 -0.03548023 -0.098506205 0.121047296 -0.025330666 0.051726744 0.030616682
0.103529945 -0.03983675 0.09729672 -0.042117134 0.053165708 0.10325901 0.0019517272 0.017859189
-0.021849649 -0.093246 0.059765995 -0.10464225 0.06542727 0.07890784 0.099660866 -0.024854178
-0.086646564 0.02363129 0.058220286 -0.104908526 -0.027297888 -0.067242995 -0.012415832 -0.05566855
-0.04890858 -0.04338459 -0.098825425 0.08722677 0.07908188 -0.017537218 -0.014088732 -0.042880986
-0.09437991 -0.10297748 0.034235224 -0.035060275 -0.05697167 -0.014057279 -0.03970948 -0.04445655
-0.0069149486 -0.030234445 -0.04953343 -0.059300177 -0.0880949 0.08658724 -0.041256007 0.011236308
-0.04759433 -0.0026918682 0.11510861 0.055596232 -0.0942037 0.024180422 0.08910936 0.021574832
0.068318516 0.100859985 -0.018254673 0.03125124 -0.072226055 -0.027459642 0.07308082 0.048177984
-0.07670446 -0.08453198 -0.07202351 -0.10405363 -0.08133069 -0.026193457 0.07116534 0.017719757
-0.080313765 -0.08451788 0.04258001 -0.09021875 -0.023477776 0.038299523 -0.059976123 -0.015249017
-0.012256064 -0.026931148 -0.054753423 -0.09409245 -0.08522536 -0.056486934 0.10333525 -0.05078367
-0.072996475 0.018698582 0.037711862 0.06711202 0.078866206 0.058397368 -0.10457021 0.021035694
00000000: 5656 3f3d e728 e53c aef1 82bd 8bd4 eebd
00000010: ba48 42be c993 04be 122c e1bd 28c2 29be
00000020: 9906 22be 1eb3 3cbd dc8f 9dbd f9f2 e5bd
00000030: a38f d7bd c90f 90be 0621 12be e891 1ebd
00000040: 8ef5 55be bf4c f8bd f748 d0bc 9c0d 013d
00000050: 7e40 ef3d c4d3 293e 52b0 f63e 8624 bf3e
00000060: ee97 aebe 6544 2ebe 5ea2 9c3d 5783 2fbe
00000070: 2dd7 9ebd f1c7 9abe daa6 a43c 03ae 4f3d
00000080: 2f78 e2bd 5f8e b33e d167 563e e509 213c
00000090: a200 1ebe 295e 35be 2787 8bbd ff03 06be
000000a0: 63cd 97bd deeb 2fbe 49e7 513e 0fd2 cbbd
000000b0: 546a d5bd bb8f c13c 9ee7 643d cb47 af3d
000000c0: 2b7c c43d 8a7d b1bd 059a 0e3d d8c0 38bd
000000d0: 38fc 58bc bb20 98bd 00a7 aa3d d51a 52bd
000000e0: a3a7 b0bd 3ad2 123e ebde 213e 271c 1bbd
000000f0: 5bb9 1dbe 5cf7 b2bd c078 d3bd 5530 93bd
00000100: f463 2f3d 1739 ecbb 7fe4 4bbd fe6f 433d
00000110: b6ea 15bc 861b 34bd 9acb b9bd f45e 84bd
00000120: bd14 663d a1b5 0c3c 51b9 2dbd 87a3 40bd
00000130: 83fc c0bd 9072 0b3d 3c6f f43d 1b2d c3bd
00000140: 754e 83bc eafe 5e3d f155 9c3c 5a7d 19bd
00000150: f458 613d c5e4 623d 9975 213d d7bc 97bc
00000160: c4a8 e4bc e1a9 383c 935f 3d3b a8f5 a1bd
00000170: a0a0 823d ea74 573e 39a5 24bd 0731 e0bd
00000180: 2712 ed3d fd97 9f3d 9e67 24bc fbb5 f33c
00000190: 28a0 08be ac1b 3dbd 5c25 0c3e 9d10 3c3d
000001a0: 0d31 57bd 71f9 2abc 1a5f f0bb 50f1 89bd
000001b0: fec6 20bd 9f50 013d eddc 883d c42f 083d
000001c0: f903 e5bd c98a bfbd 85b8 a6bc 6e2c d43d
000001d0: a13b 1dbc ae8c e8bc e255 533d 3cba 67bd
000001e0: 7943 ccbd daa1 3a3e efba c5bb 5e05 4abd
000001f0: 1cf0 b2bd ab46 353e d4df b23d d835 403c
00000200: 89ef c5bd 028c 81bd 95fe d4bd c9b6 1a3d
00000210: c056 ce3d d5f0 c03d 6968 123d 5901 dd3c
00000220: 424f 3dba 64e9 a3bd 884c b8bd 8c6e c9bd
00000230: a732 343d 5272 4fbd 0c66 adbc 82cc 76bd
00000240: b10d acbc a13c a3bd ef19 77bd afd6 273d
00000250: 6e6f 93bd 768a a13d bc99 cbbc 2282 c0bd
00000260: 9a3c d2bc 2bb3 acbc b853 11bd 9fbd c9bd
00000270: a5e7 f73d 4282 cfbc 6cdf 533d d6cf fa3c
00000280: 8207 d43d dc2b 23bd 8143 c73d 0483 2cbd
00000290: 49c4 593d 7679 d33d 19d1 ff3a 6f4d 923c
000002a0: 09fe b2bc c2f7 bebd 30cd 743d ad4e d6bd
000002b0: bcfe 853d 6f9a a13d ff1a cc3d fd9a cbbc
000002c0: c173 b1bd 6896 c13c 6578 6e3d 48da d6bd
000002d0: d29f dfbc b2b6 89bd c66b 4bbc b504 64bd
000002e0: 5d54 48bd 0ab4 31bd fc64 cabd f3a3 b23d
000002f0: aef5 a13d 36aa 8fbc 6dd4 66bc f9a3 2fbd
00000300: 414a c1bd dbe5 d2bd 3c3a 0c3d 5d9b 0fbd
00000310: 205b 69bd 8050 66bc 68a6 22bd 1218 36bd
00000320: cb96 e2bb 3aae f7bc 91e3 4abd bee4 72bd
00000330: 196b b4bd a754 b13d 0ffc 28bd 7e18 383c
00000340: 46f2 42bd 0e6a 30bb 10be eb3d e0b8 633d
00000350: dfed c0bd 0516 c63c f87e b63d b4bd b03c
00000360: 94ea 8b3d ae8f ce3d d38a 95bc 4d01 003d
00000370: 41eb 93bd 0bf3 e0bc 66ab 953d 4756 453d
00000380: 3a17 9dbd 1a1f adbd 1081 93bd 121a d5bd
00000390: b490 a6bd a993 d6bc 22bf 913d 0629 913c
000003a0: 8b7b a4bd b617 adbd 6068 2e3d 9cc4 b8bd
000003b0: 7754 c0bc f6df 1c3d 86a9 75bd 03d7 79bc
000003c0: a9cd 48bc b69e dcbc 2045 60bd 8bb3 c0bd
000003d0: a28a aebd d85e 67bd 6ea1 d33d 8a02 50bd
000003e0: 2d7f 95bd c52d 993c c177 1a3d 0772 893d
000003f0: 9b84 a13d 1432 6f3d e828 d6bd 0c53 ac3c

block_1.2.bias f4 [10]
0.33807167 -0.12224215 -0.07478146 0.3377678 -0.25474083 0.09539975 0.06029004 -0.29598543
0.41295046 -0.07897215
00000000: bb17 ad3e 185a fabd 0627 99bd e7ef ac3e
00000010: 646d 82be f260 c33d b0f2 763d 678b 97be
00000020: 3e6e d33e 27bc a1bd

block_2.0.weight f4 [10, 10, 3, 3]
-0.047971863 -0.15596792 0.051443253 0.06981409 0.03429783 0.27759248 0.06500389 0.16743842
0.2178452 0.04580427 -0.09791723 -0.027610034 -0.082454436 -0.04791188 0.096664205 0.034486264
0.005414364 -0.03535501 0.017305909 -0.06170953 0.053024415 -0.0478067 -0.026129158 -0.093262635
0.0027545306 0.10213816 0.05227763 -0.15086283 0.060384553 -0.24002011 -0.21747798 0.22153467
-0.16728689 -0.08295529 -0.20355278 -0.11268846 -0.040747922 -0.02089453 -0.028305937 -0.10252555
0.06624316 -0.07377422 -0.09258286 -0.0741328 0.064785905 0.17016298 -0.11354719 -0.08891933
0.2203063 -0.046480812 -0.048389357 -0.041132886 0.1007035 0.0856636 -0.2316862 0.22342098
-0.16883014 -0.0334941 0.29943958 0.09768926 0.2795246 -0.10401987 0.044748574 -0.027146515
0.016895302 0.007185619 -0.039399635 0.13646607 -0.05987362 0.10354269 -0.20970528 -0.012780748
-0.21961172 0.0148414085 -0.10493577 0.0069520124 0.24733576 -0.08782405 -0.19836824 -0.06537735
-0.059347205 0.26655474 -0.11517442 -0.02621061 0.28627387 0.1333556 -0.11037699 0.10637159
0.038309895 0.058662847 -0.10615919 -0.42521828 -0.26014096 0.24642941 -0.21642062 0.017208029
-0.049898744 0.030478923 -0.07500011 0.06107257 -0.17546517 -0.19900425 -0.056689892 0.08519465
-0.0059203054 0.041299954 -0.020316515 0.060439717 0.06665357 0.042189598 -0.043082524 -0.086199075
0.0051004356 -0.060933437 0.086443044 -0.10146318 0.046024162 0.07372936 0.30672923 0.22507852
-0.23782602 0.6278032 0.23115641 -0.69288933 -0.15395185 -0.2568603 0.13040482 0.24740118
0.13310315 -0.048710622 0.035743997 0.06580826 -0.053520728 -0.1923693 -0.07287874 0.103784956
-0.4862964 -0.17979886 0.3890716 0.09835046 -0.11213567 0.14048728 0.18004599 0.18001841
-0.33028844 0.09611927 -0.10315919 -0.8414845 0.24313563 0.3807959 -0.38680902 0.13416041
0.10222258 0.012666124 -0.30866206 -0.16508667 -0.28541106 -0.25356895 -0.26418957 -0.27330145
-0.21638896 -0.3120687 -0.6153061 0.16819449 0.5183429 -0.20408638 0.38438618 0.31759366
-0.15023503 -0.20072868 -0.29598543 0.3526394 0.08756013 -0.1304687 0.18065853 -0.017743653
-0.33712724 -0.53008187 0.17966463 0.11973843 -0.008804283 0.11257349 0.022169162 0.020794977
-0.0888931 -0.09883298 -0.014835214 -0.048152853 -0.033940297 -0.027718056 -0.05698936 -0.044533897
-0.041108996 0.104538806 -0.0384536 -0.08188617 0.039887603 -0.005215772 0.08049658 0.06593199
0.09876596 -0.07743598 0.067853555 0.08918532 -0.051920205 0.09699225 0.07902974 -0.15795135
-0.04459924 0.09542321 -0.27596456 0.09854677 0.21462314 -0.23173349 -0.04141414 -0.11915517
0.0804134 0.07503342 0.049559157 -0.0875884 0.04880171 0.062318966 -0.015216872 0.04457031
0.04707274 -0.025446627 -0.06611951 0.0067936033 0.012719436 0.05148763 0.010278125 -0.103205316
-0.021632748 0.038585413 0.03494738 -0.13120109 -0.1320042 -0.10262281 -0.07410266 0.008534355
-0.21728224 -0.1749839 -0.17545754 -0.016588615 -0.10048295 0.081544854 -0.06327916 0.07389944
0.02404511 -0.18187591 -0.0017038195 0.011028995 -0.16480722 -0.22683927 0.20311297 -0.07352132
00000000: 257e 44bd 0eb6 1fbe 29b6 523d b1fa 8e3d
00000010: e27b 0c3d 9a20 8e3e c220 853d fa74 2b3e
00000020: d012 5f3e 429d 3b3d d488 c8bd 702e e2bc
00000030: dfdd a8bd 3f3f 44bd e2f7 c53d 7841 0d3d
00000040: fa6a b13b 6ad0 10bd 1fc5 8d3c 22c3 7cbd
00000050: 2130 593d f5d0 43bd d10c d6bc 7b00 bfbd
00000060: 5b85 343b d02d d13d 1121 563d c97b 1abe
00000070: cb55 773d d5c7 75be 8cb2 5ebe fcd9 623e
00000080: 414d 2bbe 77e4 a9bd 2470 50be 35c9 e6bd
00000090: 4be7 26bd 012b abbc dae1 e7bc eaf8 d1bd
000000a0: 7eaa 873d f016 97bd 159c bdbd f0d2 97bd
000000b0: 79ae 843d 343f 2e3e 6e8b e8bd 561b b6bd
000000c0: fa97 613e aa62 3ebd eb33 46bd f57a 28bd
000000d0: a33d ce3d 6670 af3d 263f 6dbe 78c8 643e
000000e0: cfe1 2cbe 1c31 09bd 2550 993e 4f11 c83d
000000f0: d91d 8f3e 5f08 d5bd 484a 373d 5e62 debc
00000100: 0468 8a3c 5775 eb3b 8361 21bd c3bd 0b3e
00000110: 0a3e 75bd 310e d43d fbbc 56be 5866 51bc
00000120: e5e1 60be 6129 733c 91e8 d6bd b5cd e33b
00000130: 9645 7d3e 18dd b3bd 0b21 4bbe 8fe4 85bd
00000140: 0e16 73bd dd79 883e 91e0 ebbd a2b7 d6bc
00000150: 7d92 923e 5f8e 083e 550d e2bd 59d9 d93d
00000160: d6ea 1c3d 7448 703d fd69 d9bd 36b6 d9be
00000170: 3231 85be fe57 7c3e 5e9d 5dbe daf7 8c3c
00000180: a062 4cbd efae f93c a899 99bd 3b27 7a3d
00000190: 24ad 33be c5c7 4bbe a933 68bd 887a ae3d
000001a0: 1fff c1bb 242a 293d d26e a6bc a38f 773d
000001b0: ab81 883d 00cf 2c3d 4d77 30bd 2489 b0bd
000001c0: 8e21 a73b 5795 79bd 0d09 b13d edcb cfbd
000001d0: d583 3c3d 6bff 963d 9d0b 9d3e fc7a 663e
000001e0: aa88 73be b6b7 203f 44b4 6c3e 3261 31bf
000001f0: 8ea5 1dbe 3183 83be d788 053e bc56 7d3e
00000200: 314c 083e ca84 47bd 4c68 123d 7bc6 863d
00000210: 8d38 5bbd 75fc 44be 7341 95bd 358d d43d
00000220: d7fb f8be 311d 38be 6534 c73e f76b c93d
00000230: 63a7 e5bd e6db 0f3e fa5d 383e bf56 383e
00000240: 911b a9be 2eda c43d 2045 d3bd 876b 57bf
00000250: 8cf8 783e aef7 c23e d50b c6be 5961 093e
00000260: 125a d13d 9385 4f3c f408 9ebe 7b0c 29be
00000270: 6621 92be cad3 81be db43 87be 2bee 8bbe
00000280: 1195 5dbe 78c7 9fbe b384 1dbf 2d3b 2c3e
00000290: 1fb2 043f 05fc 50be 44ce c43e a39b a23e
000002a0: 36d7 19be d28b 4dbe 678b 97be 278d b43e
000002b0: ba52 b33d 9699 05be 8dfe 383e 235b 91bc
000002c0: f19b acbe 72b3 07bf 01fa 373e 6c39 f53d
000002d0: d73f 10bc ee8c e63d 1a9c b53c 3a5a aa3c
000002e0: 960d b6bd f268 cabd 660f 73bc ed3b 45bd
000002f0: fb04 0bbd fa10 e3bc ad6d 69bd 2d69 36bd
00000300: e861 28bd 7118 d63d 8681 1dbd f0b3 a7bd
00000310: 2f61 233d 11e9 aabb 64db a43d 5a07 873d
00000320: cf45 ca3d c196 9ebd cef6 8a3d cba6 b63d
00000330: 48aa 54bd dfa3 c63d 58da a13d 00be 21be
00000340: b1ad 36bd 3e6d c33d 3a4b 8dbe e4d2 c93d
00000350: 2bc6 5b3e 8b4b 6dbe e0a1 29bd a007 f4bd
00000360: c8af a43d 1fab 993d 8bfe 4a3d 8c61 b3bd
00000370: 4de4 473d 2c42 7f3d 3050 79bc 5b8f 363d
00000380: 58cf 403d 7275 d0bc aa69 87bd e09c de3b
00000390: 2e65 503c b1e4 523d 9565 283c 4f5d d3bd
000003a0: 2937 b1bc bd0b 1e3d fc24 0f3d 9459 06be
000003b0: 1c2c 07be e82b d2bd 23c3 97bd aed3 0b3c
000003c0: 3c7f 5ebe fb2e 33be 24ab 33be d9e4 87bc
000003d0: 01ca cdbd fd00 a73d 8198 81bd 9758 973d
000003e0: 40fa c43c ae3d 3abe b252 dfba f5b2 343c
000003f0: 39c3 28be 8e48 68be d9fc 4f3e 5992 96bd

block_2.0.bias f4 [10]
-0.15318419 0.22082035 -0.09976807 -0.43277138 0.009449499 0.0153812235 0.32861906 0.446587
0.8471099 -0.0761412
00000000: 51dc 1cbe bb1e 623e 3453 ccbd 3694 ddbe
00000010: 12d2 1a3c 8701 7c3c c240 a83e 0da7 e43e
00000020: 32dc 583f ebef 9bbd

block_2.2.weight f4 [10, 10, 3, 3]
-0.07950196 -0.17291981 -0.043832537 -0.14535385 -0.16849326 -0.032099884 -0.08743394 -0.026878495
-0.028484805 -0.11255125 -0.13618208 -0.16748135 -0.03337102 0.020112516 -0.7998617 0.28045362
0.34787878 -0.6153487 -0.28367683 -0.0035284462 0.071777016 -0.3018349 0.13806902 0.058034703
-0.105515935 0.17232724 -0.09791639 -0.18851213 0.013398807 -0.0958715 -0.086329564 0.061461326
0.09608083 -0.06222799 -0.059406072 -0.07925891 -0.014013089 -0.0685882 0.120706044 -0.010913567
-0.120590664 0.024265395 -0.04054225 -0.06871918 -0.23168941 -0.08859538 -0.091883264 0.05754146
0.04001359 -0.03913218 0.021091275 -0.033743132 -0.08505553 -0.2078334 -0.084237754 0.03869366
-0.07167063 -0.40304762 -0.07933431 0.11354217 -0.4047685 0.49365377 0.18866467 0.35383704
0.15206555 0.10407092 -0.19102705 0.16055502 -0.089231566 -0.06646264 0.008661258 -0.3513989
0.49034217 -0.19136211 0.029404145 0.08811709 -0.459982 0.077996716 -0.28087765 -0.4907662
-0.41908303 -0.03171232 0.06277826 -0.07423472 -0.0039829663 -0.0579771 -0.05542307 0.048961993
-0.042367145 -0.056364976 0.059769988 0.049566563 0.15534341 -0.058937803 0.101933554 0.06680287
0.23617435 -0.004009868 0.1567103 0.060522422 0.16071437 -0.27682844 -0.0596459 -0.25281847
0.4404938 -0.24114756 -0.39522147 0.16752 -0.2959041 -0.18318614 0.05487445 -0.13146837
-0.19568178 -0.06477721 -0.080883935 -0.3661305 -0.06869527 0.038190857 0.11422011 -0.08707221
0.32636678 -0.14276636 -0.3573726 0.373447 -0.033704728 -0.28530928 -0.12320555 -0.029002307
-0.1862713 0.04248779 -0.14686729 0.008015649 0.19539516 -0.16998072 -0.14737038 0.10054534
0.12041169 0.18637171 0.011127888 -0.12486544 0.17062083 0.16876672 0.055547107 0.06509898
-0.20293409 -0.3935433 0.0434867 -0.11889243 -0.2434635 0.33977884 0.13947749 -0.12911373
0.18177736 0.038506947 -0.013956729 0.14643745 0.13618922 -0.54979706 -0.23558775 0.16863716
-0.48415512 0.015912293 -0.4188498 -0.25011176 -0.22444613 0.20355229 0.25412664 -0.6225125
-0.0061145728 0.21495238 -0.14657557 -0.027703542 0.12244891 0.14254475 -0.082791254 -0.078787
0.08156235 -0.008257525 -0.036223322 -0.060541324 0.15676287 0.0578985 -0.09877217 -0.118552074
-0.018340152 -0.09148972 0.05589219 0.07739245 -0.054316368 -0.58106375 -0.17540103 -0.61304855
-0.6983521 0.5615264 -0.2922042 -0.124431655 0.078199565 0.41231292 -0.097967476 -0.1280389
-0.048844997 -0.11314889 0.0042811874 0.053603027 -0.071930476 -0.095842585 0.14689362 -0.08012588
0.17732657 -0.04449138 0.031561486 -0.049412012 -0.18817359 -0.091495566 0.08114464 -0.16652445
0.106402256 -0.095914766 -0.2021472 -0.044224076 0.05288263 -0.115723975 0.21532512 0.010523155
0.07334157 0.10637768 0.041900955 -0.1412469 0.07527372 -0.024341954 -0.119722635 0.023017455
0.04635348 -0.117645405 -0.6618896 -0.029397696 0.39949644 -0.3120895 -0.2512064 -0.09663488
-0.0071447976 0.016361848 0.03237433 -0.4885087 0.44116348 0.3961557 -0.10706349 -0.122436956
0.092524834 0.05502562 -0.39921844 -0.30914113 -0.06959441 -0.14565448 0.05751181 0.085351124
00000000: ecd1 a2bd e411 31be bf89 33bd a4d7 14be
00000010: 7f89 2cbe 2b7b 03bd 9110 b3bd 4a30 dcbc
00000020: f758 e9bc 4581 e6bd 5173 0bbe 3b80 2bbe
00000030: 0db0 08bd 01c3 a43c bdc3 4cbf 9e97 8f3e
00000040: 2b1d b23e 7e87 1dbf 173e 91be 813d 67bb
00000050: d4ff 923d 1b8a 9abe f761 0d3e ccb5 6d3d
00000060: bd18 d8bd 8d76 303e 6388 c8bd 5309 41be
00000070: ab86 5b3c 4758 c4bd 8ecd b0bd dfbe 7b3d
00000080: 07c6 c43d c7e2 7ebd c853 73bd 7f52 a2bd
00000090: 2897 65bc f877 8cbd bb34 f73d d1ce 32bc
000000a0: 3df8 f6bd 39c8 c63c a10f 26bd a4bc 8cbd
000000b0: fd3f 6dbe 7f71 b5bd 4b2d bcbd 98b0 6b3d
000000c0: 4ae5 233d 1149 20bd 9cc7 ac3c 3d36 0abd
000000d0: 9831 aebd 47d2 54be d884 acbd 3e7d 1e3d
000000e0: 0dc8 92bd 425c cebe 077a a2bd cc88 e83d
000000f0: d13d cfbe 30c0 fc3e 5031 413e 212a b53e
00000100: 12b7 1b3e 2223 d53d 989c 43be 8968 243e
00000110: 0abf b6bd 911d 88bd f3e7 0d3c 8eea b3be
00000120: 210e fb3e 6ef4 43be f6e0 f03c bc76 b43d
00000130: c382 ebbe bebc 9f3d 32cf 8fbe b545 fbbe
00000140: 0d92 d6be c7e4 01bd e391 803d 5f08 98bd
00000150: 8b83 82bb 6579 6dbd 4d03 63bd 5f8c 483d
00000160: 2c89 2dbd f6de 66bd 60d1 743d 4f06 4b3d
00000170: 5812 1f3e c468 71bd 8ac2 d03d f1cf 883d
00000180: b0d7 713e 3665 83bb aa78 203e 5ce6 773d
00000190: 4f92 243e 75bc 8dbe 424f 74bd 6c71 81be
000001a0: 6788 e13e 63ef 76be 785a cabe 5d8a 2b3e
000001b0: be80 97be 2695 3bbe 08c4 603d a59f 06be
000001c0: ce60 48be eaa9 84bd 7aa6 a5bd 7575 bbbe
000001d0: 1bb0 8cbd 046e 1c3d 3cec e93d ea52 b2bd
000001e0: 8c19 a73e 5831 12be 8bf9 b6be 7234 bf3e
000001f0: f80d 0abd 0f14 92be 3153 fcbd 3f96 edbc
00000200: e7bd 3ebe ad07 2e3d 6164 16be 1254 033c
00000210: ab15 483e 6d0f 2ebe 43e8 16be b7ea cd3d
00000220: 679a f63d 3ad8 3e3e bf51 363c 74b9 ffbd
00000230: 3ab7 2e3e 2fd1 2c3e 5d85 633d 9d52 853d
00000240: f4cd 4fbe 827e c9be 1c1f 323d e07d f3bd
00000250: 7f4e 79be 7ef7 ad3e 30d3 0e3e 6436 04be
00000260: d823 3a3e 76b9 1d3d c4aa 64bc b3f3 153e
00000270: 3075 0b3e 80bf 0cbf ea3d 71be 38af 2c3e
00000280: 2ee3 f7be 7f5a 823c 7b73 d6be a60e 80be
00000290: 35d5 65be 0370 503e e31c 823e fb5c 1fbf
000002a0: c15c c8bb 7a1c 5c3e e817 16be 8af2 e2bc
000002b0: 7ec6 fa3d 40f7 113e 768e a9bd 145b a1bd
000002c0: 290a a73d 924a 07bc e85e 14bd 2efa 77bd
000002d0: 7286 203e fa26 6d3d 1049 cabd 6ecb f2bd
000002e0: 163e 96bc f65e bbbd 36ef 643d ef7f 9e3d
000002f0: d77a 5ebd 98c0 14bf 549c 33be c0f0 1cbf
00000300: 34c7 32bf 32c0 0f3f ca9b 95be 06d6 febd
00000310: 1827 a03d ae1a d33e 2ca3 c8bd a11c 03be
00000320: b111 48bd 9bba e7bd 3449 8c3b d98e 5b3d
00000330: 4950 93bd 1e49 c4bd 486b 163e 0a19 a4bd
00000340: 1995 353e 983c 36bd 9e46 013d 4064 4abd
00000350: 94b0 40be 0762 bbbd 292f a63d 6385 2abe
00000360: 6de9 d93d f66e c4bd adff 4ebe 4e24 35bd
00000370: 759b 583d b100 edbd 307e 5c3e 5069 2c3c
00000380: 1b34 963d 8bdc d93d 56a0 2b3d 07a3 10be
00000390: 1c29 9a3d c768 c7bc 2431 f5bd 1a8f bc3c
000003a0: 26dd 3d3d 13f0 f0bd 9971 29bf 70d3 f0bc
000003b0: cc8a cc3e 32ca 9fbe 209e 80be 82e8 c5bd
000003c0: e81e eabb 4809 863c f29a 043d d01d fabe
000003d0: 2ee0 e13e ebd4 ca3e 1a44 dbbd 3ac0 fabd
000003e0: a97d bd3d 8b62 613d 5c66 ccbe bf47 9ebe
000003f0: 8487 8ebd 7326 15be 8191 6b3d 92cc ae3d

block_2.2.bias f4 [10]
0.3736107 -0.13677871 0.31184283 0.060795352 -0.12895198 0.22281162 0.1385088 -0.14891835
-0.1632286 -0.017474543
00000000: e749 bf3e b80f 0cbe dda9 9f3e 8c04 793d
00000010: fd0b 04be bb28 643e 40d5 0d3e 0d7e 18be
00000020: 6625 27be c626 8fbc

classifier.1.weight f4 [10, 490]
-0.09409339 0.070557185 0.006650156 -0.22359224 0.120213136 -0.14702028 0.025405133 0.106932536
0.20219173 0.07740829 -0.28256404 0.08278285 0.2649823 0.15453832 0.042314887 0.14726265
0.19879891 -0.30878595 0.12739626 -0.060877383 -0.028041232 -0.029857356 0.22905649 -0.07463414
-0.10165507 0.13752732 -0.08546934 -0.05083861 -0.13027413 0.04405319 -0.09472475 0.04421624
0.30254886 -0.07765282 0.05415792 -0.02062738 -0.0969785 -0.0034063382 -0.14261703 0.045369834
0.20972493 -0.19841313 0.070641145 -0.26154342 -0.21439306 0.016596545 -0.059709802 0.33409756
-0.014900706 0.14806198 0.13594666 -0.19131689 -0.1793536 0.04326553 -0.17037752 0.18208526
-0.0016404785 -0.018953742 -0.0818421 -0.09739144 0.08294758 0.03590713 0.021114256 0.050850786
0.25255126 -0.08335772 -0.034825046 -0.013110911 0.18728177 0.038470767 0.14177768 -0.031281956
-0.0028821907 -0.08426562 -0.019528998 0.1912754 -0.039480995 -0.026304059 -0.049041342 -0.09322814
-0.16259632 0.13779831 0.15629007 -0.16408464 -0.23812383 0.02440403 -0.046109065 -0.05609827
-0.12291068 -0.035259616 0.1342616 -0.15406898 -0.0078654885 0.13480195 0.033339262 -0.056601726
-0.0031215705 0.10751038 0.021701748 -0.06966733 -0.021201689 -0.11101817 0.1876413 0.14925286
0.04541251 0.27402076 0.091529615 0.017650912 0.06634794 0.13194798 0.20610532 0.106984794
0.13344397 0.19060169 0.18921217 -0.0041703447 0.042370252 -0.0042064255 -0.05898938 0.00057802344
-0.09791332 0.16990787 -0.115839675 -0.03435574 0.1335306 -0.10572155 -0.35634682 -0.0047955406
0.088342994 -0.03013259 -0.08626886 0.03834785 0.046820212 -0.09227324 0.13568121 0.02324794
-0.009502036 -0.13546593 -0.050897174 0.09703821 -0.0797533 0.009289087 0.084307164 -0.1758749
-0.0046701087 -0.20037584 -0.15296495 0.27597392 -0.07137507 -0.03321004 -0.05920179 0.16692883
0.12313173 -0.036196947 -0.22623268 -0.0046460237 -0.10421299 -0.027375845 0.022896789 -0.1292375
-0.11379221 -0.11298111 -0.11282579 -0.031166451 0.08345524 0.02193866 -0.05882995 0.08327391
0.031904217 0.101953045 -0.0064967456 0.048404668 0.02866034 0.09518848 0.2558584 -0.06375262
0.19062982 -0.05628632 -0.101547346 -0.03356465 -0.10736653 0.18333289 -0.057032283 0.17426014
-0.057043463 -0.08302734 -0.03481811 -0.0467245 0.14357743 0.017108245 0.122478575 -0.10235058
-0.025870958 -0.1613027 -0.08599554 0.026180152 -0.0025433816 -0.0154246595 -0.036179062 0.015362479
0.0027501015 -0.029691147 -0.05002405 0.012380881 -0.07817799 0.26482484 0.25145927 0.015009434
-0.036867704 -0.0056326296 0.13430384 0.16347301 0.064544745 0.1848845 0.06966976 0.15443958
0.1651767 0.20379975 0.011387973 -0.22753511 -0.03452731 0.04409486 0.12229229 0.04916515
0.13114464 -0.15663041 -0.17712466 0.11100852 -0.09299391 0.04665433 -0.040199954 -0.023458615
-0.091054454 0.04237259 -0.00057053263 -0.0026844179 0.031293996 -0.031842202 -0.021699088 0.025681065
0.18734679 -0.129059 -0.1763861 -0.118696235 -0.023696503 0.019679636 0.13290541 -0.027275862
0.2778274 0.016398393 0.31211612 0.17469649 0.011997416 -0.1264492 0.03685933 0.21918182
00000000: 09b4 c0bd 4980 903d 8de9 d93b 5df5 64be
00000010: 4e32 f63d 7c8c 16be 6d1e d03c 72ff da3d
00000020: 590b 4f3e 3d88 9e3d 3cac 90be 0e8a a93d
00000030: c3ab 873e 4b3f 1e3e 6052 2d3d 05cc 163e
00000040: f191 4b3e 3119 9ebe 2a74 023e 905a 79bd
00000050: bab6 e5bc 6a97 f4bc c98d 6a3e c9d9 98bd
00000060: 8930 d0bd f6d3 0c3e 8d0a afbd 253c 50bd
00000070: 9566 05be 1e71 343d 0dff c1bd 171c 353d
00000080: afe7 9a3e 7108 9fbd b2d4 5d3d c0fa a8bc
00000090: aa9c c6bd df3c 5fbb 330a 12be b8d5 393d
000000a0: 22c2 563e d02c 4bbe 4eac 903d 05e9 85be
000000b0: db89 5bbe 7af5 873c 4492 74bd d60e ab3e
000000c0: 1722 74bc 8f9d 173e 9a35 0b3e 93e8 43be
000000d0: 78a8 37be 3237 313d 7277 2ebe 8f74 3a3e
000000e0: 5305 d7ba e144 9bbc d59c a7bd 2a75 c7bd
000000f0: 6ce0 a93d 5b13 133d cef7 ac3c ea48 503d
00000100: 664e 813e 74b7 aabd b5a4 0ebd 25cf 56bc
00000110: cbc6 3f3e 8693 1d3d 2b2e 113e 8221 00bd
00000120: 23e3 3cbb 7493 acbd 47fb 9fbc b3dd 433e
00000130: d3b6 21bd 9c7b d7bc 93df 48bd 65ee bebd
00000140: a67f 26be 001b 0d3e 810a 203e ce05 28be
00000150: bcd6 73be f6ea c73c dcdc 3cbd 4dc7 65bd
00000160: 98b8 fbbd 636c 10bd df7b 093e 42c4 1dbe
00000170: 40de 00bc 8609 0a3e c08e 083d 36d7 67bd
00000180: 4393 4cbb 672e dc3d ddc7 b13c bfad 8ebd
00000190: 2aaf adbc 7f5d e3bd 0a25 403e bed5 183e
000001a0: 7802 3a3d 734c 8c3e e173 bb3d a598 903c
000001b0: 6ee1 873d 5f1d 073e 460d 533e d81a db3d
000001c0: 89a5 083e 172d 433e d6c0 413e 63a7 88bb
000001d0: 6e8c 2d3d 0ed6 89bb d99e 71bd 7f86 173a
000001e0: c786 c8bd 54fc 2d3e 5a3d edbd 9bb8 0cbd
000001f0: 3fbc 083e 8a84 d8bd 1773 b6be e923 9dbb
00000200: 2ced b43d 9fd8 f6bc baad b0bd a312 1d3d
00000210: 8dc6 3f3d c1f9 bcbd 04f0 0a3e 7772 be3c
00000220: 6dae 1bbc 95b7 0abe 8e79 50bd f8bb c63d
00000230: b355 a3bd 4131 183c 3ca9 ac3d 8d18 34be
00000240: b607 99bb 532f 4dbe d8a2 1cbe 744c 8d3e
00000250: 182d 92bd 4007 08bd 937d 72bd 64ef 2a3e
00000260: 7d2c fc3d 4043 14bd 8aa9 67be ac3d 98bb
00000270: 9f6d d5bd 4f43 e0bc 0c92 bb3c d656 04be
00000280: e40b e9bd a462 e7bd 3511 e7bd c950 ffbc
00000290: 95ea aa3d b4b8 b33c acf7 70bd 838b aa3d
000002a0: ffad 023d c2cc d03d a7e2 d4bb f943 463d
000002b0: 17c9 ea3c 2ef2 c23d dfff 823e bc90 82bd
000002c0: 7734 433e 7c8c 66bd 0ef8 cfbd 167b 09bd
000002d0: fce2 dbbd 9ebb 3b3e af9a 69bd 4071 323e
000002e0: 68a6 69bd 3d0a aabd 6f9d 0ebd 3062 3fbd
000002f0: f605 133e 9726 8c3c 0cd6 fa3d 2e9d d1bd
00000300: 55ef d3bc 892c 25be 6e1e b0bd c277 d63c
00000310: ddae 26bb b6b7 7cbc 7f30 14bd e8b2 7b3c
00000320: 0c3b 343b d93a f3bc 05e6 4cbd 2ed9 4a3c
00000330: c81b a0bd 1f97 873e 45bf 803e 21ea 753c
00000340: 9702 17bd ec91 b8bb f286 093e 7865 273e
00000350: 0930 843d 5d52 3d3e 05af 8e3d 6925 1e3e
00000360: 1524 293e e2b0 503e 9f94 3a3c f7fe 68be
00000370: 826c 0dbd d09c 343d 6174 fa3d 6561 493d
00000380: c84a 063e b963 20be 2b60 35be 6f58 e33d
00000390: 9773 bebd 9c18 3f3d b5a8 24bd 482c c0bc
000003a0: c27a babd e28e 2d3d cc8f 15ba 0fed 2fbb
000003b0: 222e 003d f86c 02bd 49c2 b1bc 1961 d23c
000003c0: d6d7 3f3e 0b28 04be 8f9e 34be 0317 f3bd
000003d0: 2b1f c2bc 3037 a13c 5b18 083e a171 dfbc
000003e0: 653f 8e3e ec55 863c afcd 9f3e a3e3 323e
000003f0: cf90 443c e67b 01be cff9 163d 3371 603e

classifier.1.bias f4 [10]
0.13625558 -0.14995088 0.45774314 0.005874041 -0.43982702 -0.27657345 0.090021305 0.084385134
0.16802515 -0.11277853
00000000: 9586 0b3e b98c 19be 4f5d ea3e 077b c03b
00000010: 0231 e1be 099b 8dbe 175d b83d 1dd2 ac3d
00000020: c90e 2c3e 6ef8 e6bd
